langmodels/model/model.safetensors (safetensors, 272092 bytes, 125 tensors)

bert.embeddings.LayerNorm.bias f2 [768]
000000 98 a6 fb a4 2f 26 b0 2d 04 ac df a2 d6 22 7b a2
       -0.02576 -0.01945 0.02415 0.08887 -0.06274 -0.01342 0.01335 -0.01266
000010 99 1c 89 28 1e aa 10 a3 5a 1d 9e ae d8 ac c9 26
       0.00449 0.03543 -0.0478 -0.013794 0.005226 -0.1034 -0.0757 0.0265
000020 54 a5 98 a9 37 ab 86 ad 60 a0 c1 a8 86 a9 fd a5
       -0.02081 -0.0437 -0.05637 -0.0863 -0.008545 -0.03714 -0.04315 -0.02339
000030 24 25 ee 9e df ab 03 aa 8a 1b c6 9d 23 a9 b1 ae
       0.02008 -0.006767 -0.0615 -0.04697 0.003681 -0.00564 -0.04013 -0.10455
000040 e4 a7 12 aa 92 aa bd 2a 2f 9e 09 ac 29 a8 40 a1
       -0.03082 -0.04742 -0.05133 0.05264 -0.00604 -0.06305 -0.0325 -0.010254
000050 c0 a6 39 28 0a 26 dd a8 8f ac cb 24 23 aa 94 a6
       -0.02637 0.033 0.02359 -0.038 -0.0712 0.01872 -0.04794 -0.0257
000060 be ae 75 1c 57 a7 9e ab 28 22 03 30 4e ab d5 ac
       -0.10535 0.004353 -0.02867 -0.0595 0.012024 0.1254 -0.05707 -0.0755
000070 01 a9 c6 1e 1a ac fb a9 6c a5 22 a9 f4 ac 94 aa
       -0.0391 0.006615 -0.0641 -0.04672 -0.02118 -0.0401 -0.0774 -0.0514
000080 9d 27 dd 26 49 a9 e6 ad b2 a9 ff a4 5a ab dc 9a
       0.02974 0.02681 -0.0413 -0.09216 -0.0445 -0.01952 -0.05743 -0.00335
000090 f6 1a 4c a4 08 26 25 aa 03 21 b0 ae 28 aa ab 1f
       0.003399 -0.01678 0.02356 -0.048 0.00979 -0.1045 -0.0481 0.00749
0000a0 fa a4 5b a9 c6 ac 59 94 71 aa b2 ab 60 a9 e7 a3
       -0.01944 -0.04184 -0.0746 -0.001061 -0.05032 -0.06012 -0.042 -0.015434
0000b0 2c ac 27 23 c9 aa c9 a6 af ad fe ad f0 9f 05 9f
       -0.0652 0.01397 -0.053 -0.0265 -0.0888 -0.0936 -0.00775 -0.006855
0000c0 df 9e f5 21 cb 91 6c 2a 95 a3 ff 20 e5 a6 bd a0
       -0.00671 0.011635 -0.000707 0.05017 -0.01481 0.00976 -0.02693 -0.009254
0000d0 a9 a6 93 aa 4e 1e 9b 9c 6c a9 89 ad b2 2e bd a9
       -0.02602 -0.05136 0.006157 -0.004498 -0.04236 -0.0865 0.1046 -0.04483
0000e0 81 95 3c 2a 42 ac 3c ac 09 ac b7 9c 69 a2 63 a8
       -0.001344 0.0487 -0.0665 -0.06616 -0.06305 -0.004604 -0.01252 -0.03427
0000f0 f7 a7 ec 38 5c ab 00 a8 b3 28 44 a2 59 a9 e7 2c
       -0.03111 0.615 -0.0575 -0.03125 0.0367 -0.01224 -0.04178 0.0766
000100 27 aa 79 1d 01 a8 6a 94 c6 25 9c ad e8 25 18 a0
       -0.04807 0.005344 -0.03128 -0.001078 0.02255 -0.08765 0.02307 -0.007996
000110 0a 9c d1 a6 f9 a6 26 30 51 96 a2 aa b1 a9 dd a1
       -0.003944 -0.02663 -0.02724 0.1296 -0.001542 -0.05182 -0.04446 -0.01145
000120 e4 ac 0d 39 35 a7 b0 24 55 23 c7 21 04 a4 52 9b
       -0.0764 0.6313 -0.02815 0.01831 0.01432 0.011284 -0.01569 -0.003574
000130 08 2d 6b a5 7b a4 51 a4 7d a5 82 18 cd 1f a7 b1
       0.0786 -0.02116 -0.0175 -0.01686 -0.02144 0.002201 0.007618 -0.1766
000140 a1 92 3f aa 9b a1 3b 25 07 a7 a4 a3 8f a6 e0 ae
       -0.000809 -0.0488 -0.01095 0.02043 -0.02745 -0.01492 -0.02562 -0.1074
000150 01 32 fb 26 4c ab 56 ab ef ac 60 90 5b a7 72 b8
       0.1876 0.02727 -0.057 -0.0573 -0.0771 -0.000534 -0.02873 -0.5557
000160 ae ac 36 a7 dc ad 12 ab 19 a1 fd a5 d4 25 26 22
       -0.0731 -0.02817 -0.09155 -0.05524 -0.00996 -0.02339 0.02277 0.01201
000170 06 a9 77 a9 7f ac 62 ad 0e a4 fc a8 dc a0 0d 26
       -0.03925 -0.0427 -0.07025 -0.0841 -0.01584 -0.03894 -0.00949 0.02364
000180 14 a7 54 2a 8e 9a a5 1c 36 a3 16 aa 30 2b a1 26
       -0.02765 0.04944 -0.0032 0.004536 -0.014084 -0.04755 0.05615 0.0259
000190 ce a5 10 b0 6b a9 6b a4 4b 28 46 ac 92 aa c5 a2
       -0.02267 -0.127 -0.04233 -0.01726 0.03354 -0.0668 -0.05133 -0.01322
0001a0 dc 29 7c aa 14 9c be 21 d3 ad 05 a8 4c a8 3d ad
       0.04578 -0.05066 -0.003983 0.011215 -0.091 -0.0314 -0.03357 -0.08185
0001b0 90 ad 67 aa d5 a8 c8 ac 4a ad bf 96 17 a9 2e a9
       -0.0869 -0.05002 -0.03775 -0.0747 -0.08264 -0.001647 -0.03976 -0.04047
0001c0 a4 26 1d af fa aa 70 9d 3c aa 43 28 f0 9f 85 24
       0.02594 -0.11115 -0.0545 -0.00531 -0.0487 0.0333 -0.00775 0.01765
0001d0 4c 29 2b 25 ad 20 90 a5 24 a9 c9 ae b6 a8 74 22
       0.04138 0.02019 0.00913 -0.02173 -0.04016 -0.106 -0.0368 0.0126
0001e0 87 a5 ed 19 66 a8 5d 9d c0 24 0f b0 3e 20 09 27
       -0.02159 0.002893 -0.03436 -0.005238 0.01855 -0.1268 0.008286 0.02748
0001f0 2f a9 b3 24 fc 9d 23 a4 6f 24 5a ae 5f ab b7 aa
       -0.0405 0.01836 -0.005844 -0.01616 0.01732 -0.09924 -0.0576 -0.05246

bert.embeddings.LayerNorm.weight f2 [768]
000000 69 3b 15 3b dd 3a e5 3a 25 3b 2d 3b 70 3b 4f 3b
       0.9263 0.8853 0.858 0.862 0.893 0.897 0.9297 0.9136
000010 7f 3b 78 3a 65 3a 75 3a 3a 3b 8f 3a 48 3b cb 3a
       0.937 0.8086 0.7993 0.807 0.9033 0.82 0.91 0.849
000020 85 3a e4 3a 50 3b ed 3a 63 3b f0 3a 35 3b f2 3a
       0.815 0.8613 0.914 0.8657 0.9233 0.867 0.901 0.868
000030 c1 3a 31 3b 50 3a 6b 3b cd 3a bb 3a 58 3b ea 3a
       0.844 0.899 0.789 0.9272 0.85 0.8413 0.918 0.8643
000040 59 3b ba 3b 17 3b f8 3a 48 3b fe 3a 4e 3b 1b 3b
       0.9185 0.966 0.886 0.871 0.91 0.874 0.913 0.888
000050 4e 3b 80 3b 0f 3b e6 3a 0d 3b f7 3a dc 3a 8e 3b
       0.913 0.9375 0.8823 0.8623 0.8813 0.8706 0.8574 0.9443
000060 55 3b 7c 3b 69 3b ce 3a 71 3b 85 35 ec 3a 8f 3a
       0.9165 0.9355 0.9263 0.8506 0.93 0.345 0.865 0.82
000070 fa 3a da 3a 27 3b 71 3a 35 3b ca 3a 31 36 1c 3b
       0.872 0.8564 0.894 0.805 0.901 0.8486 0.387 0.8887
000080 24 3b 04 3b 2c 3b a3 3b 28 3b 28 3b 94 3b 97 3b
       0.8926 0.877 0.8965 0.9546 0.8945 0.8945 0.9473 0.9487
000090 7b 3b 40 3a 67 3b 5b 3a 0b 3b 2c 36 52 3a c8 3a
       0.935 0.7812 0.9253 0.7944 0.8804 0.3857 0.79 0.8477
0000a0 1c 3b 5f 3b 6f 3b 31 3b 3b 3a 9b 3a f9 3a 06 3b
       0.8887 0.9214 0.929 0.899 0.779 0.8257 0.8716 0.878
0000b0 37 3b 5a 3b e2 3a 02 3b ab 39 e1 3a 2f 3b 79 3a
       0.902 0.919 0.8604 0.876 0.7085 0.86 0.898 0.809
0000c0 6f 36 55 3a 23 3b 4b 3b 91 3b 97 3b ff 3a b9 3a
       0.402 0.7915 0.892 0.9116 0.946 0.9487 0.8745 0.8403
0000d0 6d 3a ad 34 74 3b 41 3b 15 3b 7e 3a 46 3b 29 3b
       0.803 0.2922 0.9316 0.9067 0.8853 0.8115 0.909 0.895
0000e0 38 3b 51 3b 32 3b f8 3a 34 3b 3a 3b 28 3b 32 3b
       0.9023 0.9146 0.8994 0.871 0.9004 0.9033 0.8945 0.8994
0000f0 f0 3a d6 30 f6 3a 16 3b 2a 39 d8 3a ec 3a 57 3a
       0.867 0.1511 0.87 0.8857 0.6455 0.8555 0.865 0.7925
000100 29 3b b2 3a 4c 3b 17 3b 6b 36 12 3b 2c 3b 6a 3b
       0.895 0.837 0.912 0.886 0.4011 0.884 0.8965 0.927
000110 33 3b ac 3a 3c 3b be 36 57 3b 45 3b 5f 3b 47 3b
       0.9 0.834 0.9043 0.4214 0.9175 0.9087 0.9214 0.9097
000120 59 3b 02 32 50 3b c7 3a c0 3a ac 3a 77 3a 40 3b
       0.9185 0.1877 0.914 0.847 0.8438 0.834 0.808 0.9062
000130 db 39 13 3b 97 3b 48 3b 4e 3b b2 3a 56 3b f1 2f
       0.732 0.8843 0.9487 0.91 0.913 0.837 0.917 0.1241
000140 47 3b 4d 3b c1 3a dd 3b 51 3b 57 3b ea 3a bd 3a
       0.9097 0.9126 0.844 0.983 0.9146 0.9175 0.8643 0.8423
000150 28 36 29 3b 81 3b 27 3b a1 3a 8d 3b 74 3b 98 2f
       0.3848 0.895 0.938 0.894 0.8286 0.944 0.9316 0.11865
000160 c6 3a bc 3a f6 3a e6 3a 26 3b 7b 3b f7 3a 74 3b
       0.8467 0.842 0.87 0.8623 0.8936 0.935 0.8706 0.9316
000170 7d 3b 56 3b 62 3b fa 3a 77 3b ba 3a 0d 3b 20 3b
       0.936 0.917 0.923 0.872 0.933 0.841 0.8813 0.8906
000180 f9 3a e0 3a 05 3b 18 3b 51 3b 50 3b 64 3a 77 3a
       0.8716 0.8594 0.8774 0.8867 0.9146 0.914 0.799 0.808
000190 f7 3a 36 3b 62 34 e9 3a e4 3a ae 3a 52 3b c4 3a
       0.8706 0.9014 0.274 0.864 0.8613 0.835 0.915 0.8457
0001a0 80 3b f5 3a d8 3a 9a 3b b4 3a 43 3b 02 3b 30 34
       0.9375 0.8696 0.8555 0.95 0.838 0.9077 0.876 0.2617
0001b0 0b 30 47 3b 2e 38 d8 3a 6e 3b 13 3b 8d 3b 04 3b
       0.1263 0.9097 0.5225 0.8555 0.9287 0.8843 0.944 0.877
0001c0 92 3a 9e 35 af 3a 3c 3a 6e 3b 2b 3b fe 3a 07 3b
       0.8213 0.351 0.8354 0.7793 0.9287 0.896 0.874 0.8784
0001d0 08 3b 44 3b 55 3b 14 3b ea 3a 6a 3a 64 3b 5d 3a
       0.879 0.908 0.9165 0.885 0.8643 0.802 0.924 0.7954
0001e0 b4 3a 1d 3b 3c 3b eb 3a bb 3a 44 36 b9 3a bc 3a
       0.838 0.889 0.9043 0.8647 0.8413 0.3916 0.8403 0.842
0001f0 e0 3a c7 37 21 3b 0a 3b fe 3a e5 3a 48 3b e3 3a
       0.8594 0.486 0.891 0.88 0.874 0.862 0.91 0.861

bert.embeddings.token_type_embeddings.weight f2 [2, 768]
000000 ec 10 ac 21 6a 1b 6a 15 db 10 a6 a1 6c 20 e4 9b
       0.000601 0.01108 0.00362 0.001322 0.0005927 -0.01103 0.00864 -0.003853
000010 b4 9f bb 23 ba 1b 7b 25 2d 1c 1c 9c 2a 1a cf 9a
       -0.007523 0.0151 0.003773 0.02141 0.004078 -0.004013 0.00301 -0.003325
000020 ab 12 7d 03 ac a1 1c 24 45 22 d9 1b 65 18 90 9d
       0.000814 5.32e-05 -0.01108 0.01605 0.012245 0.003832 0.002146 -0.005432
000030 30 22 7f 19 a2 1d 1b 20 8a a1 b3 13 20 9c e4 1c
       0.012085 0.002684 0.0055 0.00802 -0.01082 0.00094 -0.00403 0.004776
000040 db 1b a6 9e 45 14 65 0c e9 1a 3d 20 7d 22 b7 a1
       0.003836 -0.006493 0.001042 0.0002682 0.003374 0.00828 0.01267 -0.01116
000050 73 94 e1 a0 f7 22 9a 20 db a0 e8 9e 1d 9d 0d 94
       -0.001086 -0.00953 0.0136 0.00899 -0.00948 -0.006744 -0.004993 -0.000989
000060 01 9d b4 93 c8 95 79 9d 93 9a a2 a0 59 24 9b 1a
       -0.004887 -0.0009403 -0.001411 -0.005344 -0.00321 -0.00905 0.01698 0.003225
000070 78 1c d2 a3 45 a0 76 16 31 a2 d9 1d 20 1f 58 1c
       0.004364 -0.015274 -0.00834 0.001577 -0.01209 0.00571 0.006958 0.004242
000080 9f 91 2e 9c 76 9b 56 22 77 97 33 a2 2c 1a a7 a0
       -0.000686 -0.00408 -0.003643 0.012375 -0.001822 -0.01211 0.003014 -0.00909
000090 f8 15 37 22 8d 22 6a 19 d3 21 b9 8f eb 9e 5d 1c
       0.001457 0.01214 0.012794 0.002644 0.011375 -0.0004714 -0.006756 0.00426
0000a0 49 20 50 17 eb 0c e8 94 cd 23 f9 90 d2 9c 13 9e
       0.00837 0.001785 0.0003002 -0.001198 0.015236 -0.000607 -0.004707 -0.00593
0000b0 43 98 d9 9d cb 99 c7 9e 5b 24 8f 14 f2 97 8a 1f
       -0.00208 -0.00571 -0.002829 -0.00662 0.01701 0.001113 -0.00194 0.007362
0000c0 ce 9d 13 0c ca 1f 18 9c 34 a2 56 9b f7 a2 70 1b
       -0.00567 0.0002487 0.007607 -0.003998 -0.012115 -0.003582 -0.0136 0.003632
0000d0 02 24 6a 92 19 1c 95 a3 25 19 bd 95 e7 99 b5 92
       0.01566 -0.000783 0.004 -0.01481 0.002512 -0.001401 -0.002882 -0.0008187
0000e0 ed 9c a1 12 14 96 96 9d 03 1a 2e 11 50 1c e8 1a
       -0.00481 0.000809 -0.001484 -0.005455 0.002935 0.0006323 0.00421 0.003372
0000f0 a7 a0 7a b0 bd 18 61 20 0f 24 d2 20 ca 20 73 28
       -0.00909 -0.1399 0.002314 0.00855 0.01585 0.009415 0.00935 0.03476
000100 f6 1e 0d 1f 1d 9d 12 8d ba a0 fe 9c 3e 0e 1d a1
       0.006798 0.006886 -0.004993 -0.0003095 -0.00923 -0.004875 0.000381 -0.00999
000110 f0 99 95 97 69 9c 3e ac 21 a1 98 a0 02 9a 9b 9d
       -0.0029 -0.001851 -0.004307 -0.0663 -0.01002 -0.00897 -0.002934 -0.005474
000120 cb 1f 17 b0 c1 9d b6 a1 06 95 7f 1f 58 99 d7 1d
       0.00761 -0.1278 -0.00562 -0.011154 -0.001226 0.00732 -0.00261 0.005703
000130 2a 23 91 1d cf 98 ac 20 1e 9e 78 19 c4 98 c1 34
       0.01399 0.005436 -0.002348 0.009125 -0.005974 0.00267 -0.002327 0.297
000140 1c 99 7b 19 53 1b 7b 1e 66 1d 22 19 75 a0 1b 9b
       -0.002495 0.002676 0.003576 0.00633 0.005272 0.002506 -0.008705 -0.00347
000150 26 ae 29 1c d6 20 c8 96 44 1d fa 1f 68 9a 77 26
       -0.09607 0.004063 0.009445 -0.001656 0.005142 0.00779 -0.003128 0.02525
000160 75 1b 42 21 e3 12 fc 19 4d a2 90 9c a8 23 50 14
       0.003641 0.01027 0.0008407 0.002922 -0.01231 -0.004456 0.01495 0.001053
000170 8e 9e 4d 1d 35 1f 63 22 51 10 f1 9f 1b 9d 82 a0
       -0.0064 0.005177 0.00704 0.012474 0.000527 -0.007755 -0.004986 -0.008804
000180 35 26 84 94 14 21 37 95 e5 1f 3d 1f 39 1f ea 21
       0.02425 -0.001102 0.00992 -0.001273 0.00771 0.00707 0.007053 0.01155
000190 25 1f e8 15 d4 18 b6 23 7e 11 de 15 cc 20 16 8b
       0.006977 0.001442 0.002357 0.01506 0.0006704 0.001432 0.00937 -0.0002162
0001a0 3c 1a a1 94 94 9e cc 9c 99 1e c0 16 19 1e 84 27
       0.003044 -0.00113 -0.006424 -0.004684 0.006443 0.001648 0.005955 0.02936
0001b0 d5 ac 90 98 2f 9d 08 1d 9a 97 4f 9b 31 21 8d 98
       -0.0755 -0.002228 -0.005062 0.004913 -0.001856 -0.003569 0.01014 -0.002222
0001c0 72 21 5d 26 ed 9a 10 20 17 1c eb 20 01 98 93 13
       0.010635 0.02486 -0.003382 0.007935 0.003994 0.009605 -0.001955 0.0009246
0001d0 79 22 0e 9d 40 14 32 99 c8 9c 8f 21 9f 99 02 a1
       0.01264 -0.004936 0.001038 -0.002537 -0.00467 0.01086 -0.002745 -0.00978
0001e0 2b 20 e4 9a 14 9d 37 23 69 21 a1 0d 07 a0 ed 13
       0.00814 -0.003365 -0.00496 0.01409 0.01057 0.0003436 -0.007866 0.0009675
0001f0 80 0e 5e 25 06 23 b6 90 0d 9c 8c 9d eb a0 af a0
       0.0003967 0.02097 0.01372 -0.000575 -0.003956 -0.005417 -0.009605 -0.00915

bert.encoder.layer.0.attention.output.LayerNorm.bias f2 [768]
000000 20 34 de a7 70 b4 38 b6 e5 35 6f b7 26 38 43 32
       0.2578 -0.03073 -0.2773 -0.3887 0.3684 -0.4646 0.5186 0.1957
000010 72 20 90 1a 29 2b b6 33 20 b8 f6 38 86 30 6b b1
       0.00868 0.003204 0.05594 0.241 -0.5156 0.62 0.1414 -0.1693
000020 b8 b6 b2 b6 d9 2d dd 38 d5 34 0b b8 a7 35 83 34
       -0.42 -0.4185 0.0914 0.608 0.302 -0.5054 0.3533 0.282
000030 17 b6 33 34 94 35 34 b3 69 b3 65 2a 63 b0 db a2
       -0.3806 0.2625 0.3486 -0.2251 -0.2316 0.04996 -0.1371 -0.01339
000040 09 36 80 b3 aa 2f d2 b3 62 b1 bf 2e e2 32 42 b7
       0.3772 -0.2344 0.11975 -0.2444 -0.1682 0.1054 0.2151 -0.4536
000050 04 b0 aa b5 f7 ad 90 30 55 ad 2d b1 2b b3 05 b3
       -0.1255 -0.354 -0.0932 0.1426 -0.0833 -0.1617 -0.224 -0.2194
000060 0e 32 13 23 c4 b6 09 31 92 38 4a bc 7f 32 52 b4
       0.1892 0.01382 -0.4229 0.1573 0.5713 -1.072 0.203 -0.27
000070 99 28 5b b7 95 22 7a b4 52 ac 0d 30 09 ba 93 b8
       0.03592 -0.4597 0.012856 -0.2798 -0.0675 0.1266 -0.7544 -0.572
000080 f3 b2 f1 ac 26 2d 79 27 b4 2b 5e b2 83 2e 06 29
       -0.2172 -0.0772 0.08044 0.02919 0.06018 -0.199 0.10175 0.03925
000090 b4 b8 9e b4 28 31 2b 35 4c 2f 8b 2e 2f 2d 18 ae
       -0.588 -0.2886 0.1611 0.323 0.114 0.10223 0.081 -0.0952
0000a0 67 29 2f 24 c2 30 1e a8 92 33 a9 30 8c b2 b6 2a
       0.0422 0.01634 0.1487 -0.03217 0.2366 0.1456 -0.2046 0.05243
0000b0 61 2e 12 2f 88 a3 67 ad ab 3a 07 28 50 2e 88 2b
       0.0997 0.1105 -0.01471 -0.0844 0.8335 0.03146 0.09863 0.05884
0000c0 a8 31 39 b2 ea a5 d3 ae 5b ad 8c 33 d1 a7 4a ad
       0.1768 -0.1945 -0.0231 -0.1066 -0.0837 0.2358 -0.03053 -0.08264
0000d0 84 2e d5 32 b4 b6 b2 ac 20 35 75 ae 8a ad 2a 35
       0.1018 0.2135 -0.419 -0.07336 0.3203 -0.1009 -0.08655 0.3228
0000e0 65 ba 37 b6 9d 2d 52 2e ac 30 1e 31 3a ad ce 2d
       -0.7993 -0.3884 0.0877 0.09875 0.146 0.1599 -0.08167 0.0907
0000f0 58 b2 5e c0 1f b2 80 2f a8 2c 85 a8 1e ae cf 2d
       -0.1982 -2.184 -0.1913 0.1172 0.07275 -0.0353 -0.0956 0.09076
000100 5d 31 2c ae 93 ab 20 35 21 b0 82 2f 78 b2 40 b5
       0.1676 -0.09644 -0.05917 0.3203 -0.129 0.1173 -0.2021 -0.3281
000110 05 b6 e8 b3 11 b6 f5 b9 46 ae 2c 29 37 b1 e2 31
       -0.3762 -0.2471 -0.3792 -0.7446 -0.098 0.0404 -0.163 0.1838
000120 b0 32 a3 c0 41 b0 08 b4 41 2e 7e 32 f3 30 ce 32
       0.209 -2.318 -0.1329 -0.252 0.0977 0.2029 0.1547 0.2126
000130 5d b1 85 2c 32 2c 65 2b 1d 36 24 35 57 33 b8 36
       -0.1676 0.0706 0.06555 0.05777 0.382 0.3213 0.2294 0.42
000140 13 b0 4f 31 68 28 20 2b c5 2d d8 2c 3a 99 bf b4
       -0.1273 0.1659 0.03442 0.05566 0.09015 0.0757 -0.002552 -0.2966
000150 d3 be 5a b0 16 a4 f4 33 bc 34 02 38 90 31 23 38
       -1.706 -0.136 -0.01596 0.2485 0.296 0.501 0.1738 0.517
000160 e8 a6 8f 31 43 32 ed 29 16 b0 06 b1 6e 35 19 37
       -0.02698 0.1737 0.1957 0.0463 -0.1277 -0.157 0.3394 0.4436
000170 d4 35 19 29 61 37 7b 38 72 2b 7d a5 f9 b4 d6 b6
       0.3643 0.03983 0.4612 0.56 0.05817 -0.02144 -0.3108 -0.4272
000180 cd 38 d7 b3 61 b2 6a 2b 7c ad 95 31 6a b3 05 30
       0.6 -0.245 -0.1993 0.05792 -0.0857 0.1744 -0.2317 0.1256
000190 13 ae 87 37 d9 33 fa 35 cd 24 a6 31 d2 37 12 b0
       -0.0949 0.4705 0.2452 0.3735 0.01875 0.1765 0.4888 -0.1272
0001a0 3e ac 1c b0 86 2b 41 b3 83 34 66 32 6c 29 c4 b6
       -0.0663 -0.1284 0.05878 -0.2267 0.282 0.2 0.04236 -0.4229
0001b0 29 b3 2b ae d9 39 4e 31 88 2f a4 36 94 33 9c b5
       -0.2238 -0.0964 0.731 0.1658 0.1177 0.415 0.2368 -0.3506
0001c0 60 2f 0a 30 63 ae 04 b2 10 a5 d2 2d ce 32 f3 ac
       0.11523 0.1262 -0.0998 -0.188 -0.01978 0.09094 0.2126 -0.07733
0001d0 a3 33 5b ae b7 30 28 34 99 32 47 32 84 2d 0d b4
       0.2386 -0.0993 0.1473 0.2598 0.2062 0.1962 0.0862 -0.2532
0001e0 51 b4 83 2a 08 29 0a 35 19 a2 ee 33 ab b7 07 29
       -0.2698 0.05087 0.0393 0.315 -0.01191 0.2478 -0.4792 0.03928
0001f0 00 b1 66 ae 09 35 84 37 8e ae 96 a9 31 20 23 ad
       -0.1562 -0.1 0.3147 0.4697 -0.1024 -0.04364 0.00819 -0.08026

bert.encoder.layer.0.attention.output.LayerNorm.weight f2 [768]
000000 d8 3b ae 3b b6 3b b0 3b d7 3b e2 3b b8 3b c9 3b
       0.9805 0.96 0.964 0.961 0.98 0.9854 0.965 0.973
000010 9a 3b 90 3b 8b 3b 67 3b c0 3b 0e 3c c2 3b 93 3b
       0.95 0.9453 0.943 0.9253 0.9688 1.014 0.9697 0.947
000020 a2 3b c0 3b af 3b 0d 3c a3 3b ff 3b ac 3b b3 3b
       0.954 0.9688 0.9604 1.013 0.9546 0.9995 0.959 0.9624
000030 b0 3b 95 3b bb 3b c6 3b 75 3b 78 3b 7f 3b 9f 3b
       0.961 0.9478 0.9663 0.9717 0.932 0.9336 0.937 0.9526
000040 d1 3b ce 3b eb 3b db 3b a1 3b ac 3b d4 3b ca 3b
       0.977 0.9756 0.9897 0.982 0.9536 0.959 0.9785 0.9736
000050 a1 3b ab 3b c5 3b b7 3b 8c 3b 99 3b 1f 3c be 3b
       0.9536 0.9585 0.971 0.9644 0.9434 0.9497 1.03 0.968
000060 03 3c 86 3b df 3b a6 3b fc 3b 6a 3c c0 3b 69 3b
       1.003 0.9404 0.984 0.956 0.998 1.104 0.9688 0.9263
000070 90 3b ba 3b 88 3b a9 3b 7d 3b 80 3b fc 3b fb 3b
       0.9453 0.966 0.9414 0.9575 0.936 0.9375 0.998 0.9976
000080 8a 3b c8 3b a7 3b c2 3b 9c 3b c1 3b 70 3b 82 3b
       0.9424 0.9727 0.9565 0.9697 0.951 0.969 0.9297 0.9385
000090 d8 3b 8f 3b d2 3b b3 3b 62 3b 1d 3c 8a 3b 9d 3b
       0.9805 0.945 0.9775 0.9624 0.923 1.028 0.9424 0.9517
0000a0 a3 3b b8 3b c0 3b 87 3b 6a 3b 98 3b 6b 3b 99 3b
       0.9546 0.965 0.9688 0.941 0.927 0.949 0.9272 0.9497
0000b0 b5 3b 94 3b 60 3b 7f 3b 4a 3c 7d 3b 4c 3b 76 3b
       0.9634 0.9473 0.922 0.937 1.072 0.936 0.912 0.9326
0000c0 d8 3b d3 3b 8c 3b b8 3b b0 3b d3 3b 87 3b 60 3b
       0.9805 0.978 0.9434 0.965 0.961 0.978 0.941 0.922
0000d0 79 3b 68 3b af 3b a6 3b ac 3b 44 3b e2 3b 9e 3b
       0.934 0.926 0.9604 0.956 0.959 0.908 0.9854 0.952
0000e0 f3 3b a2 3b a6 3b 8f 3b 95 3b 9c 3b 79 3b 77 3b
       0.9937 0.954 0.956 0.945 0.9478 0.951 0.934 0.933
0000f0 c3 3b e1 3b c6 3b 7a 3b a4 3b 83 3b 7a 3b 86 3b
       0.97 0.985 0.9717 0.9346 0.955 0.939 0.9346 0.9404
000100 a0 3b aa 3b a0 3b 86 3b fd 3b 8d 3b 90 3b b5 3b
       0.953 0.958 0.953 0.9404 0.9985 0.944 0.9453 0.9634
000110 b5 3b 88 3b ac 3b 17 3c d3 3b 01 3c b8 3b be 3b
       0.9634 0.9414 0.959 1.022 0.978 1.001 0.965 0.968
000120 98 3b 80 3e a9 3b 97 3b 7c 3b 94 3b 6e 3b ab 3b
       0.949 1.625 0.9575 0.9487 0.9355 0.9473 0.9287 0.9585
000130 52 3b cc 3b 8b 3b a4 3b ca 3b 6a 3b ba 3b b9 39
       0.915 0.9746 0.943 0.955 0.9736 0.927 0.966 0.7153
000140 bf 3b cb 3b 57 3b c3 3b 89 3b c0 3b 90 3b 94 3b
       0.9683 0.974 0.9175 0.97 0.942 0.9688 0.9453 0.9473
000150 4e 3c d4 3b a9 3b c5 3b a0 3b ed 3b 9d 3b 6d 3c
       1.076 0.9785 0.9575 0.971 0.953 0.9907 0.9517 1.106
000160 7c 3b 8a 3b 79 3b cf 3b 7e 3b b6 3b be 3b d0 3b
       0.9355 0.9424 0.934 0.976 0.9365 0.964 0.968 0.9766
000170 c5 3b 85 3b d3 3b ee 3b 87 3b 90 3b bb 3b de 3b
       0.971 0.94 0.978 0.991 0.941 0.9453 0.9663 0.9834
000180 10 3c 91 3b d3 3b c3 3b cb 3b af 3b b6 3b 59 3b
       1.016 0.946 0.978 0.97 0.974 0.9604 0.964 0.9185
000190 b5 3b e1 3b 02 3c af 3b af 3b 7c 3b d0 3b 6c 3b
       0.9634 0.985 1.002 0.9604 0.9604 0.9355 0.9766 0.9277
0001a0 b7 3b 79 3b 88 3b 89 3b bd 3b 5f 3b b4 3b b9 3b
       0.9644 0.934 0.9414 0.942 0.9673 0.9214 0.963 0.9653
0001b0 c4 39 cd 3b 25 3c 99 3b b7 3b de 3b b0 3b 90 3b
       0.7207 0.975 1.036 0.9497 0.9644 0.9834 0.961 0.9453
0001c0 b9 3b cb 3a 86 3b 46 3b 93 3b b8 3b 7e 3b 9b 3b
       0.9653 0.849 0.9404 0.909 0.947 0.965 0.9365 0.9507
0001d0 b1 3b 97 3b 9f 3b 9a 3b 9e 3b 95 3b 91 3b 68 3b
       0.9614 0.9487 0.9526 0.95 0.952 0.9478 0.946 0.926
0001e0 a8 3b 9a 3b 79 3b 97 3b 91 3b 5c 3b a3 3b 5a 3b
       0.957 0.95 0.934 0.9487 0.946 0.92 0.9546 0.919
0001f0 48 3b 06 3b 90 3b 13 3c 93 3b 99 3b bb 3b 9d 3b
       0.91 0.878 0.9453 1.019 0.947 0.9497 0.9663 0.9517

bert.encoder.layer.0.attention.output.dense.bias f2 [768]
000000 5c 1d 3f a4 39 27 0f a2 fe 24 8c a9 56 a4 70 20
       0.005234 -0.01659 0.02821 -0.01183 0.0195 -0.04333 -0.01694 0.00867
000010 01 a3 cf 22 98 26 b3 2a 9b 2a 00 a8 94 a4 e6 27
       -0.01368 0.0133 0.02576 0.05234 0.0516 -0.03125 -0.01788 0.03085
000020 14 28 e4 a1 16 99 21 98 03 91 7d 24 54 a4 c6 24
       0.03186 -0.011505 -0.002483 -0.002016 -0.000612 0.01753 -0.0169 0.01865
000030 f1 18 ee 1c 1a 9d 30 26 a8 22 1e 2b 7f 24 8d 27
       0.002413 0.004814 -0.004982 0.02417 0.013 0.0556 0.01756 0.0295
000040 97 22 8e 21 85 9e 10 25 7f aa 72 25 d0 94 82 a0
       0.01287 0.01085 -0.006367 0.01978 -0.05075 0.02127 -0.001175 -0.008804
000050 34 a9 c7 a5 dc 28 23 28 22 9e 31 29 aa 8d f5 a6
       -0.04065 -0.02257 0.03796 0.03232 -0.00599 0.04056 -0.0003457 -0.02718
000060 90 26 c1 a7 72 24 07 23 34 89 82 22 a5 2a 5e a5
       0.02563 -0.03029 0.01736 0.013725 -0.0001588 0.01271 0.0519 -0.02097
000070 49 20 36 a2 f5 a2 19 25 0a 1f 35 28 39 a9 ba a8
       0.00837 -0.01213 -0.01359 0.01991 0.006874 0.03287 -0.0408 -0.03693
000080 3b a9 59 a4 ab 15 eb a3 e7 a6 6f 29 11 26 c7 9f
       -0.04086 -0.01698 0.001384 -0.015465 -0.02696 0.04245 0.0237 -0.007595
000090 27 1b 66 91 f0 a1 1c 9a 60 96 57 b0 1e 28 f3 a1
       0.003492 -0.000659 -0.0116 -0.002983 -0.001556 -0.1356 0.03217 -0.01162
0000a0 b0 27 a3 2b 70 1d 54 26 dd 28 c2 a9 03 28 ff a8
       0.03003 0.05966 0.00531 0.02472 0.038 -0.04498 0.03134 -0.03903
0000b0 dd a0 e2 a8 f4 a7 69 a7 8f 2b 74 25 23 28 5a 2a
       -0.0095 -0.03815 -0.03107 -0.02895 0.05905 0.0213 0.03232 0.04962
0000c0 66 ac fe 2b e1 26 b0 15 90 14 bd 1c 34 a9 4d 1d
       -0.0687 0.06244 0.02687 0.001389 0.001114 0.004627 -0.04065 0.005177
0000d0 03 a1 75 b0 cd 12 16 ac b9 28 4e a4 94 27 b1 26
       -0.00979 -0.1393 0.00083 -0.06384 0.0369 -0.01682 0.0296 0.02614
0000e0 bb 98 9c 24 cf 29 eb 23 e7 12 82 23 ab 26 a7 a7
       -0.00231 0.018 0.04538 0.015465 0.0008426 0.01466 0.02605 -0.02989
0000f0 c9 a5 7d b0 b1 24 8c 26 3b 2a 82 83 f6 ab 38 29
       -0.0226 -0.1403 0.01833 0.02557 0.04868 -5.35e-05 -0.0622 0.04077
000100 bb 28 a6 2b b4 a8 62 a1 24 a8 30 a2 88 a3 3b a6
       0.03696 0.05975 -0.03674 -0.01051 -0.03235 -0.012085 -0.01471 -0.02434
000110 52 aa f4 a9 d7 27 33 ac 4b a1 df 9d ff a4 bd 27
       -0.04938 -0.0465 0.03062 -0.0656 -0.01034 -0.005733 -0.01952 0.03023
000120 71 98 05 b2 49 a7 4f 1e 94 a9 6f 29 ed 97 b4 29
       -0.002169 -0.1881 -0.02846 0.00616 -0.04358 0.04245 -0.001935 0.04456
000130 5d 24 f0 21 6f 9e 5d a8 80 24 50 a0 b7 29 27 30
       0.01704 0.0116 -0.006283 -0.0341 0.01758 -0.00842 0.04465 0.1298
000140 c1 9e 18 13 47 29 6b a4 97 27 a8 25 51 a8 1a a1
       -0.006596 0.000866 0.04123 -0.01726 0.02965 0.0221 -0.03372 -0.009964
000150 93 2e b3 26 cb 98 5c a7 ee 1a 56 9e 4b 20 ba 30
       0.1027 0.02617 -0.00234 -0.02875 0.003384 -0.006187 0.008385 0.1477
000160 3d a9 5e 25 d3 20 07 2a 68 97 f0 a4 85 96 a2 20
       -0.04092 0.02097 0.00942 0.0471 -0.001808 -0.01929 -0.001592 0.00905
000170 ce a5 65 25 99 26 c3 24 da 9b f1 1d 4d a5 c1 29
       -0.02267 0.02107 0.02577 0.0186 -0.003834 0.005802 -0.0207 0.04495
000180 99 29 f9 23 98 ab 5e 94 df a6 58 a4 be a5 79 28
       0.04373 0.01557 -0.05933 -0.001066 -0.02684 -0.01697 -0.02243 0.03494
000190 ef 27 07 27 5e ac 63 20 6e 28 3f a4 61 a5 a8 9d
       0.03099 0.02745 -0.06824 0.00857 0.0346 -0.01659 -0.02101 -0.005524
0001a0 c4 1b e4 a4 6b 23 5e 27 14 a9 b0 9f a3 a7 57 ad
       0.003792 -0.0191 0.01449 0.02878 -0.03967 -0.007507 -0.02983 -0.08344
0001b0 fc ae e1 1b 5f ad a7 a4 34 aa b0 96 a3 9c 0b a8
       -0.10913 0.003847 -0.0839 -0.01817 -0.04846 -0.001633 -0.004528 -0.0316
0001c0 0a 24 13 b0 8c aa 06 a9 4a a4 8c a7 76 1a 1e 0c
       0.01578 -0.1273 -0.05115 -0.03925 -0.01675 -0.02948 0.003155 0.0002513
0001d0 f3 28 2f 98 58 28 8a 24 60 a5 c7 a8 a8 23 87 a4
       0.03867 -0.002043 0.03394 0.01773 -0.021 -0.03732 0.01495 -0.01768
0001e0 01 99 a2 28 c3 99 bb a2 01 a7 01 b0 3c a5 ea 29
       -0.002443 0.0362 -0.002813 -0.013145 -0.02736 -0.1251 -0.02045 0.0462
0001f0 08 9c cd a3 7a a1 d0 28 69 24 17 28 d6 24 5c 2a
       -0.003937 -0.015236 -0.0107 0.0376 0.01723 0.03195 0.01889 0.04968

bert.encoder.layer.0.attention.self.key.bias f2 [768]
000000 a4 13 91 0f ef 98 9c 8d 99 94 42 19 8c 18 21 12
       0.0009327 0.0004618 -0.002409 -0.0003424 -0.001122 0.002567 0.00222 0.000748
000010 ba 18 51 13 fc 12 c5 15 91 10 98 95 20 9c 71 17
       0.002308 0.000893 0.0008526 0.001409 0.0005574 -0.001366 -0.00403 0.001817
000020 4e 0e a7 9e 8a 93 4a 95 b0 19 dd 1b bf 90 94 13
       0.0003848 -0.006496 -0.0009203 -0.001291 0.002777 0.00384 -0.0005794 0.000925
000030 94 10 46 9b 49 94 8f 8d bf 9b a1 a1 30 9a 9b 94
       0.000559 -0.003551 -0.001046 -0.0003393 -0.003782 -0.010994 -0.003021 -0.001124
000040 39 97 ef 14 0e 14 5a 14 56 90 61 9a 04 19 4c 09
       -0.001763 0.0012045 0.00099 0.001062 -0.0005293 -0.003115 0.002449 0.0001616
000050 4e 8d 96 90 fa 96 56 a0 5c 99 1a 9a 76 89 1b 91
       -0.0003238 -0.00056 -0.001703 -0.00847 -0.002617 -0.00298 -0.0001667 -0.000623
000060 e9 16 26 90 95 95 7c 10 4f 13 a2 9c 30 14 54 96
       0.001687 -0.0005064 -0.001363 0.0005474 0.000892 -0.004524 0.001022 -0.001545
000070 fe 17 ca 18 a4 14 93 92 1d 97 0f 1c 0a 96 bf 99
       0.001951 0.002338 0.001133 -0.0008025 -0.001737 0.003963 -0.001474 -0.002806
000080 34 9c 8c 98 f3 19 f7 18 bf 9d be 92 0a 16 cb 1d
       -0.004105 -0.00222 0.002905 0.002424 -0.00561 -0.000823 0.001474 0.005657
000090 aa 09 33 88 c2 8d 62 1f fe 1c 7e 19 53 98 43 1d
       0.0001729 -0.0001281 -0.0003514 0.00721 0.004875 0.002682 -0.002111 0.00514
0000a0 72 92 03 1a 34 96 12 9e f1 98 b0 1b 09 15 9d a0
       -0.000787 0.002935 -0.001514 -0.005928 -0.002413 0.003754 0.001229 -0.00901
0000b0 65 18 8e 98 1f 89 ab 17 94 0b ed 1d f8 0f 8b 9e
       0.002146 -0.002224 -0.0001563 0.001872 0.0002313 0.005787 0.0004864 -0.00639
0000c0 16 16 a6 11 45 1a bf 1b f1 10 42 97 a0 93 d9 12
       0.001486 0.0006895 0.003061 0.003782 0.000603 -0.001772 -0.000931 0.000836
0000d0 b9 9b d1 15 3a 1c fd 14 1c 18 c4 11 3e 94 46 04
       -0.00377 0.00142 0.004128 0.001218 0.002007 0.000704 -0.001036 6.52e-05
0000e0 51 01 57 1d 9b 10 62 91 2b 94 96 18 d6 03 a9 0d
       2.01e-05 0.005215 0.000562 -0.000657 -0.001018 0.00224 5.853e-05 0.0003455
0000f0 d6 0b 2e 9d 11 1d 9b 98 68 9a a2 a0 22 84 a0 8c
       0.0002391 -0.00506 0.004948 -0.002249 -0.003128 -0.00905 -6.306e-05 -0.0002823
000100 3b 1e fa 9c d3 18 bf 9b af 99 47 1b 54 90 77 a1
       0.006084 -0.00486 0.002356 -0.003782 -0.002775 0.003553 -0.0005283 -0.01067
000110 20 90 17 99 44 1e 60 11 ae 1d d1 1d 13 0e a9 91
       -0.0005035 -0.002485 0.00612 0.000656 0.005547 0.00568 0.0003707 -0.000691
000120 1c 8d d6 19 34 16 c9 1e 22 1f 13 92 73 14 0a 98
       -0.0003119 0.00285 0.001514 0.006626 0.006966 -0.0007415 0.001086 -0.001972
000130 68 a2 b9 07 a1 99 25 8d 8d 13 38 0a 7a 98 fa 0d
       -0.01251 0.00011784 -0.002748 -0.000314 0.0009217 0.0001898 -0.002186 0.0003648
000140 0b 14 fc 92 53 0e f6 9d b1 9f 7e 9a 32 a0 d3 1c
       0.000987 -0.0008526 0.000386 -0.00582 -0.00751 -0.00317 -0.008194 0.00471
000150 46 9f 66 1b bf 14 eb 93 31 99 db 9d bf 20 11 a1
       -0.007103 0.003613 0.001159 -0.0009665 -0.002535 -0.00572 0.00927 -0.009895
000160 e8 1d 36 1c 23 1a 93 15 04 18 77 99 bc 9e dc 1b
       0.005768 0.004112 0.002996 0.001361 0.00196 -0.002668 -0.006577 0.003838
000170 38 1f fd a0 fe 9c 19 9b 05 8f 79 19 cb 1a f8 9a
       0.00705 -0.00974 -0.004875 -0.003466 -0.0004284 0.002672 0.003317 -0.003403
000180 18 15 22 20 d6 95 eb 0e 63 21 47 1a a7 9f 44 9c
       0.001244 0.00807 -0.001425 0.0004222 0.01052 0.003065 -0.007473 -0.004166
000190 c2 18 ca 9d a6 98 e0 9a b5 89 e7 99 da 93 7c 9a
       0.002323 -0.005653 -0.00227 -0.003357 -0.0001742 -0.002882 -0.0009584 -0.003166
0001a0 f2 9e 3f 9d 4e 1d 19 1c a4 1d 60 10 16 9b aa 19
       -0.006783 -0.005123 0.00518 0.004 0.00551 0.000534 -0.00346 0.002766
0001b0 68 a1 18 17 e9 9e 40 9b e0 9e 09 18 0d 99 c7 99
       -0.01056 0.001732 -0.00675 -0.00354 -0.006714 0.00197 -0.002466 -0.002821
0001c0 87 98 49 13 8b 17 00 1d 43 9c 86 90 9a 9c 54 9f
       -0.00221 0.0008893 0.001842 0.004883 -0.00416 -0.000552 -0.004494 -0.007156
0001d0 3b 9f a8 88 a7 94 08 95 fc 9a 74 1b a7 94 6d 9a
       -0.00706 -0.0001421 -0.001136 -0.001228 -0.00341 0.00364 -0.001136 -0.003138
0001e0 46 98 8e 9d d5 95 fb 95 4c 80 a8 95 9d 97 a4 1d
       -0.002087 -0.005424 -0.001424 -0.00146 -4.53e-06 -0.001381 -0.001859 0.00551
0001f0 91 a0 47 20 c0 9f 15 9e f1 9d d5 91 2f 9e cd 0e
       -0.00892 0.008354 -0.00757 -0.00594 -0.005802 -0.000712 -0.00604 0.000415

bert.encoder.layer.0.attention.self.query.bias f2 [768]
000000 ae 38 4d b5 e2 b6 fe 35 c5 b4 91 36 df 22 b3 34
       0.585 -0.3313 -0.4302 0.3745 -0.298 0.4104 0.01342 0.2937
000010 7c 33 26 b0 60 30 3c 37 73 ae 11 2f e9 36 86 38
       0.2339 -0.1296 0.1367 0.4521 -0.10077 0.1104 0.432 0.5654
000020 da 27 f8 a9 0a b5 a7 af 66 1e 64 1e aa 18 87 37
       0.03067 -0.04663 -0.315 -0.11957 0.00625 0.00624 0.002277 0.4705
000030 d7 a5 fd ab 8d ac af 38 b9 b6 ba 9a 24 35 a8 a4
       -0.02281 -0.0624 -0.0711 0.5854 -0.4202 -0.003284 0.3213 -0.01819
000040 62 b0 ad b3 94 2b fe ac 9e ac 04 b0 52 38 07 ad
       -0.137 -0.2399 0.0592 -0.078 -0.07214 -0.1255 0.54 -0.07855
000050 01 b4 7e b6 fc b5 71 b0 bd b9 7f b7 24 b0 c5 b5
       -0.2502 -0.4058 -0.374 -0.1388 -0.7173 -0.4685 -0.1294 -0.3606
000060 2a 28 b6 32 da 36 81 97 61 39 a6 b1 cc 34 b0 b4
       0.03253 0.2097 0.4282 -0.001832 0.6724 -0.1765 0.2998 -0.293
000070 99 36 2a 2d a7 b1 62 b4 2e 39 c9 2b 49 b5 84 31
       0.4124 0.0807 -0.1766 -0.274 0.6475 0.06082 -0.3303 0.1724
000080 4e 19 0b b5 49 2d 15 a5 f9 32 93 31 43 b4 8d b6
       0.00259 -0.3152 0.0826 -0.01985 0.2179 0.1742 -0.2664 -0.4094
000090 1e 2d 33 32 34 aa 0a b0 52 b2 2a ac 1d 31 7a b0
       0.07996 0.1937 -0.04846 -0.1262 -0.1975 -0.06506 0.1598 -0.1399
0000a0 06 2c 5f b4 ac ab 60 33 75 b4 1f 32 69 33 30 34
       0.06287 -0.2732 -0.05994 0.2305 -0.2786 0.1913 0.2316 0.2617
0000b0 87 ad 43 33 9d 35 a6 b3 e7 b0 33 b3 7a 30 8b 30
       -0.08636 0.2269 0.3508 -0.239 -0.1532 -0.225 0.1399 0.142
0000c0 59 ad 3d 1c d4 b1 e3 30 34 29 84 ab 73 34 bf 31
       -0.08356 0.00414 -0.1821 0.1527 0.04065 -0.05872 0.278 0.1796
0000d0 38 3a c0 b3 e7 b3 ad 30 5c 1e 27 af 90 21 99 34
       0.7773 -0.2422 -0.247 0.1461 0.00621 -0.11176 0.010864 0.2874
0000e0 c2 31 f9 2c 57 2f 5a b9 67 2f d5 2c ae ad 07 b4
       0.1799 0.0777 0.1147 -0.669 0.11566 0.0755 -0.08875 -0.2517
0000f0 cc 30 a9 ac a1 ad b5 af 76 b1 e9 2c d7 b2 6b 32
       0.1499 -0.0728 -0.08795 -0.1204 -0.1707 0.0767 -0.2137 0.2006
000100 45 32 6f 3a 4d b8 ee a1 66 a1 c3 2e de ac 96 33
       0.1959 0.804 -0.5376 -0.01158 -0.010544 0.10565 -0.07605 0.237
000110 ea b0 f3 aa 8a b2 4f b3 eb 31 4f ab 0e 34 54 ba
       -0.1536 -0.0543 -0.2043 -0.2284 0.1849 -0.0571 0.2534 -0.791
000120 f6 ad 3d 27 45 32 7b aa 1d ad f0 b4 29 33 c7 3a
       -0.09314 0.02827 0.1959 -0.05063 -0.0799 -0.3086 0.2238 0.847
000130 a9 33 4e 33 3a b8 84 34 12 34 1f 2d e9 b0 66 39
       0.2394 0.2283 -0.5283 0.2822 0.2544 0.08 -0.1534 0.675
000140 8d 38 29 b8 59 36 32 34 ca b8 a8 36 22 a0 98 b9
       0.569 -0.52 0.3967 0.2622 -0.5986 0.416 -0.00807 -0.699
000150 b0 b2 29 aa 81 b7 7a b9 9d 30 8b 35 a2 b1 96 ac
       -0.209 -0.04813 -0.469 -0.6846 0.1442 0.3464 -0.176 -0.07166
000160 87 b9 ea b3 ed af bf 3a f4 b7 8e 38 27 37 1b 2c
       -0.691 -0.2473 -0.12384 0.8433 -0.497 0.5693 0.447 0.06415
000170 dd 34 4a ae 35 b9 fe b1 92 38 54 af e2 b7 aa b4
       0.304 -0.09827 -0.651 -0.1873 0.5713 -0.1145 -0.4927 -0.2915
000180 6e ba 02 2f 41 31 fa b0 51 2e 36 a4 c4 37 48 ad
       -0.8037 0.1095 0.1642 -0.1555 0.0987 -0.01645 0.4854 -0.0825
000190 93 28 a8 2c 9d 2d c6 38 9b ad bb b4 dd 2e 0f b1
       0.03574 0.07275 0.0877 0.5967 -0.0876 -0.2957 0.10724 -0.1581
0001a0 9b 2f a3 30 d1 37 62 1a 50 33 dc b6 5c b4 3e b8
       0.11884 0.1449 0.4885 0.003117 0.2285 -0.4287 -0.2725 -0.5303
0001b0 77 b8 90 ab 5f 3a 83 ab 58 ae 48 35 34 bc 4d 30
       -0.558 -0.05908 0.7964 -0.0587 -0.0991 0.33 -1.051 0.1344
0001c0 27 23 f3 ad df 30 e2 ad 68 2e 11 39 43 39 e0 2b
       0.01397 -0.09296 0.1522 -0.0919 0.1001 0.6333 0.6577 0.06152
0001d0 b0 b0 a4 b5 12 b3 5a b2 02 b2 d0 34 15 26 2a 2c
       -0.1465 -0.3525 -0.221 -0.1985 -0.1877 0.3008 0.02376 0.06506
0001e0 de b6 94 2c 33 b0 45 2d c7 ae 1a ad c3 20 e9 29
       -0.4292 0.07153 -0.1312 0.08234 -0.1059 -0.0797 0.0093 0.04617
0001f0 b3 2f e3 33 8c b9 6d a2 c2 a7 f3 2f 4d af 04 b1
       0.1203 0.2465 -0.6934 -0.01255 -0.0303 0.1242 -0.1141 -0.1567

bert.encoder.layer.0.attention.self.value.bias f2 [768]
000000 18 a2 18 a4 1d 99 67 24 b2 1c f4 21 5d a7 71 22
       -0.0119 -0.01599 -0.002497 0.0172 0.004585 0.01163 -0.02876 0.01258
000010 a4 21 7b 20 64 a5 43 29 9e 9c ce 9e ef 1f ea 98
       0.01102 0.00875 -0.02106 0.0411 -0.00451 -0.006645 0.007748 -0.0024
000020 ed 25 19 1b 64 a0 7f 24 f9 a8 38 21 e8 a4 cf 24
       0.02315 0.003466 -0.008575 0.01756 -0.03885 0.01019 -0.01917 0.01878
000030 22 1a 6a 1b 5b 9c cb 25 42 21 45 94 f9 a3 11 a1
       0.002995 0.00362 -0.004253 0.02263 0.01027 -0.001042 -0.01557 -0.009895
000040 aa 20 b4 24 38 8c 19 20 1b 26 cd 99 7a 24 35 90
       0.00911 0.01837 -0.0002575 0.008 0.02385 -0.002832 0.01749 -0.0005136
000050 58 a1 0b 1f fd a5 9c a0 de 1d b1 9d aa 14 77 24
       -0.01044 0.006878 -0.02339 -0.009 0.00573 -0.005558 0.001139 0.01744
000060 69 a4 7f a0 69 22 4f a2 b0 0d ca a0 3c 22 07 20
       -0.01723 -0.00878 0.01252 -0.01232 0.0003471 -0.00935 0.01218 0.007866
000070 39 20 1f 9a 75 20 58 21 e8 a0 12 9b 87 22 29 9d
       0.00825 -0.002989 0.008705 0.01044 -0.00958 -0.003452 0.01275 -0.00504
000080 d4 9f b9 24 4f 24 82 a9 46 26 c9 a0 90 26 21 27
       -0.007645 0.01845 0.01683 -0.04303 0.0245 -0.009346 0.02563 0.02785
000090 9c 26 50 28 a2 23 1b 9e 89 03 1b 28 11 26 57 a6
       0.02582 0.0337 0.01491 -0.005962 5.394e-05 0.03207 0.0237 -0.02477
0000a0 43 2a b1 a4 84 9e 67 24 8f 25 e8 18 46 9a c7 ab
       0.04892 -0.01833 -0.006363 0.0172 0.02171 0.002396 -0.003063 -0.06076
0000b0 4a 98 2f 9e d7 2a 91 a0 15 2c df a5 ea 28 92 20
       -0.002094 -0.00604 0.05344 -0.00892 0.0638 -0.02293 0.0384 0.00893
0000c0 f6 9b 91 a2 2c 2a bd 28 80 20 2f 29 0e 29 41 29
       -0.003887 -0.012825 0.04822 0.03702 0.00879 0.0405 0.0395 0.04105
0000d0 10 24 51 0d b3 91 9f 0d 1e a5 17 a1 02 ab d0 1d
       0.01587 0.0003245 -0.0006957 0.000343 -0.01999 -0.00994 -0.05475 0.005676
0000e0 90 27 3a 26 da 25 2f a0 56 20 ff 29 ca a2 7e a7
       0.02954 0.02432 0.02286 -0.00817 0.00847 0.04684 -0.01326 -0.02927
0000f0 67 26 22 29 e5 2a 3f a7 a8 a4 76 9c 66 a7 a8 17
       0.02501 0.0401 0.05386 -0.0283 -0.01819 -0.004356 -0.0289 0.001869
000100 77 a1 6f 27 de 29 e5 29 ba 19 2e a2 66 a9 bd a5
       -0.01067 0.02904 0.04584 0.04605 0.002796 -0.01207 -0.04218 -0.02242
000110 87 2b b7 ad 10 2a 0b aa 61 9a a1 9f 83 2c 1b 2e
       0.0588 -0.0893 0.04736 -0.0472 -0.003115 -0.00745 0.0705 0.0954
000120 a8 22 cc 29 e2 20 08 a7 13 a6 ae 24 ed 24 16 ae
       0.013 0.0453 0.00954 -0.02747 -0.02373 0.01828 0.01924 -0.0951
000130 0e af c3 27 ad a7 64 1e dd 1c 23 23 f3 29 d6 21
       -0.1102 0.03032 -0.02998 0.00624 0.00475 0.01394 0.04648 0.0114
000140 a0 29 97 a8 d4 a5 1f 26 b2 8f 64 ac c2 a2 df 1e
       0.04395 -0.03586 -0.02277 0.02391 -0.0004697 -0.0686 -0.0132 0.00671
000150 a3 a5 c3 21 7c 22 6e 20 4c 2c eb 2b 6a a3 3c ac
       -0.02202 0.01125 0.012665 0.00865 0.06714 0.06186 -0.01448 -0.06616
000160 9f 28 35 a8 ac a6 8f ae b9 12 50 ac 21 aa 09 29
       0.0361 -0.03287 -0.02606 -0.1025 0.0008206 -0.0674 -0.04788 0.03934
000170 88 06 52 a3 3d a9 7c 26 df 29 b0 8b 5d a6 cc ab
       9.966e-05 -0.0143 -0.04092 0.02533 0.04587 -0.0002346 -0.02486 -0.0609
000180 bf 2f 78 b1 29 2d 7f 2d fc 2c f8 27 cd 24 0a 30
       0.12103 -0.1709 0.0806 0.0859 0.0779 0.03113 0.01875 0.1262
000190 5d a9 0c a2 32 2f 73 98 6c 28 d9 29 b1 ac 30 a1
       -0.0419 -0.01181 0.1124 -0.002172 0.03455 0.0457 -0.0733 -0.01013
0001a0 bc 2f f1 ab f7 9c 4e 2a ff 2e 1a 30 91 ae 5d 10
       0.12085 -0.06204 -0.00485 0.04926 0.1093 0.1282 -0.1026 0.0005326
0001b0 83 2b 61 b1 81 30 ec aa 68 a5 be 24 1b ae a6 2e
       0.0587 -0.1681 0.1407 -0.05408 -0.02112 0.01852 -0.0954 0.1039
0001c0 61 2c 16 28 64 aa bf ac 2f 24 4f 1f da 2c b3 24
       0.0684 0.03192 -0.04993 -0.07416 0.01634 0.007137 0.0758 0.01836
0001d0 6d 2b 67 af c3 a3 ee 26 7b 2f af 30 f1 af 62 ac
       0.058 -0.11566 -0.01516 0.02707 0.1169 0.1464 -0.1241 -0.0685
0001e0 35 a8 95 2b 3b ab df aa be 2f af ad 9a 2a bb ad
       -0.03287 0.05923 -0.0565 -0.05368 0.121 -0.0888 0.05157 -0.08954
0001f0 7e a8 32 ac fb 23 0b ad b9 b1 c1 25 86 ae b1 ad
       -0.0351 -0.06555 0.01559 -0.0788 -0.1788 0.02248 -0.1019 -0.0889

bert.encoder.layer.0.intermediate.dense.bias f2 [3072]
000000 5a af 2c ae ef af 20 b0 15 ac d3 b0 ba ae 9d af
       -0.11487 -0.09644 -0.12396 -0.1289 -0.0638 -0.1508 -0.1051 -0.11896
000010 44 b0 1d b0 19 25 4e ae cc b0 e7 ae 30 a4 c3 a7
       -0.1333 -0.1285 0.01991 -0.0985 -0.1499 -0.10785 -0.01636 -0.03032
000020 e2 ad 90 ad e8 af 16 af 3c af 27 ae e3 ac 4e b0
       -0.0919 -0.0869 -0.12354 -0.1107 -0.11304 -0.0961 -0.07635 -0.1345
000030 33 b0 e0 b0 7e af 2a b0 a2 ae 9f ae c2 ad 70 30
       -0.1312 -0.1523 -0.11707 -0.1301 -0.10364 -0.10345 -0.08997 0.1387
000040 f3 ad 49 b0 8c b0 6a ae a6 ad eb ae 7e ad 7b af
       -0.09296 -0.1339 -0.1421 -0.1002 -0.08826 -0.1081 -0.0858 -0.1169
000050 a9 b0 8c ae e8 ac 07 34 89 b2 d3 b0 bc 25 45 b0
       -0.1456 -0.1023 -0.07666 0.2517 -0.2042 -0.1508 0.0224 -0.1334
000060 09 ac 21 af 2d b0 26 aa a5 af ff af dd ae 6c b0
       -0.06305 -0.1114 -0.1305 -0.04803 -0.11945 -0.12494 -0.10724 -0.1382
000070 82 ae 98 b0 d6 ae 0a aa 05 b1 fe ae 70 af cf ad
       -0.1017 -0.1436 -0.1068 -0.04718 -0.1569 -0.10925 -0.1162 -0.09076
000080 f0 a9 0d b0 f1 af 4f b0 a8 ad 5d af 8d b0 c2 ae
       -0.0464 -0.1266 -0.1241 -0.1346 -0.0884 -0.11505 -0.1422 -0.1056
000090 8e af ee 99 87 b0 d8 af f3 af b0 b0 a9 b0 1b ad
       -0.11804 -0.002895 -0.1415 -0.12256 -0.1242 -0.1465 -0.1456 -0.0798
0000a0 4b 35 08 ae 49 af 1c af ff ae 90 af 87 af 67 ae
       0.3308 -0.09424 -0.11383 -0.1111 -0.1093 -0.11816 -0.1176 -0.10004
0000b0 b1 b0 28 af 0e ad 73 ad 2a 34 03 af 30 ae a9 af
       -0.1466 -0.1118 -0.079 -0.08514 0.2603 -0.10956 -0.0967 -0.1197
0000c0 b8 ae 8e b0 db ae 18 ae 21 b1 6b ad db af d9 ae
       -0.105 -0.1423 -0.1071 -0.0952 -0.1603 -0.08466 -0.12274 -0.107
0000d0 dc ad b4 ad 76 ac a8 ad 22 af d8 ad ca b0 79 b0
       -0.09155 -0.0891 -0.0697 -0.0884 -0.11145 -0.0913 -0.1497 -0.1398
0000e0 3f ab 1f b0 f2 ae c9 27 55 b0 76 b0 31 b1 4d af
       -0.0566 -0.1288 -0.1085 0.03041 -0.1354 -0.1394 -0.1622 -0.1141
0000f0 49 ae 2f ac b6 b0 80 ae 31 b0 b6 af 7a b0 0b af
       -0.0982 -0.06537 -0.1472 -0.10156 -0.131 -0.1205 -0.1399 -0.11005
000100 9d b0 44 af a8 b0 fa ac aa af b0 af 3d ad 3f ae
       -0.1442 -0.1135 -0.1455 -0.07776 -0.11975 -0.1201 -0.08185 -0.0976
000110 10 ad 23 b0 e5 ae 2c af 05 ae 26 ad e2 af e7 ae
       -0.0791 -0.1293 -0.1077 -0.11206 -0.09406 -0.08044 -0.12317 -0.10785
000120 5d ad 04 ad 1a ad ce b4 7b af 32 ae 52 ae e0 ad
       -0.0838 -0.07837 -0.0797 -0.3003 -0.1169 -0.0968 -0.09875 -0.0918
000130 97 ad 50 a9 fd 24 b8 af 48 b0 3c ae c5 a8 0c b0
       -0.08734 -0.0415 0.01949 -0.1206 -0.1338 -0.0974 -0.03726 -0.1265
000140 61 b0 38 af 49 af e3 ae c7 33 ed af 3a ae 2a ad
       -0.1368 -0.1128 -0.11383 -0.1076 0.243 -0.12384 -0.0973 -0.0807
000150 33 b0 f6 ac a8 af bf a8 0b b0 3a ad 85 ad 28 ac
       -0.1312 -0.0775 -0.1196 -0.03708 -0.1263 -0.08167 -0.08624 -0.06494
000160 02 b0 e5 a8 b4 af e9 b0 b6 ae bb ad d2 ad d0 b0
       -0.1252 -0.03824 -0.12036 -0.1534 -0.10486 -0.08954 -0.09094 -0.1504
000170 9f ab 04 af 78 af da ac 65 af d0 af 5a b0 2a b0
       -0.05954 -0.1096 -0.1167 -0.0758 -0.11554 -0.1221 -0.136 -0.1301
000180 d1 b0 c2 ac e6 af b1 af df ae 89 ae a6 ac 18 b0
       -0.1505 -0.07434 -0.1234 -0.1202 -0.10736 -0.1021 -0.07263 -0.1279
000190 91 ab c4 af 1a b0 f3 ad fe ae 69 32 21 b1 0a b0
       -0.0591 -0.12134 -0.1282 -0.09296 -0.10925 0.2003 -0.1603 -0.1262
0001a0 7f b0 e7 af 32 af 54 af 38 b0 88 af cf ae b0 b0
       -0.1405 -0.1235 -0.1124 -0.1145 -0.1318 -0.1177 -0.1064 -0.1465
0001b0 14 b1 85 ae 38 26 4a ae c1 ae 9b ae fd b0 18 af
       -0.1587 -0.10187 0.02429 -0.09827 -0.1055 -0.1032 -0.1559 -0.11084
0001c0 16 b1 53 ae e1 ae 00 b0 d4 b0 4f af 15 b0 ec ae
       -0.1589 -0.0988 -0.1075 -0.125 -0.1509 -0.1142 -0.1276 -0.10815
0001d0 9e b4 a0 ad 76 b1 4c af ab a9 5b ae e7 b0 69 af
       -0.2886 -0.0879 -0.1707 -0.114 -0.04428 -0.0993 -0.1532 -0.1158
0001e0 b9 b0 06 ac 30 b0 34 b0 c1 ac 04 ae cd ad c1 ad
       -0.1476 -0.06287 -0.1309 -0.1313 -0.0743 -0.094 -0.09064 -0.0899
0001f0 83 af e8 ac 1d b0 cf ae 62 ad 0b ad 54 ae 4d b0
       -0.1174 -0.07666 -0.1285 -0.1064 -0.0841 -0.0788 -0.0989 -0.1344

bert.encoder.layer.0.output.LayerNorm.bias f2 [768]
000000 7e ae f5 9c 82 29 f7 2d d7 ae f1 2c 0d b2 b7 ad
       -0.10144 -0.00484 0.04303 0.0932 -0.1069 0.0772 -0.1891 -0.0893
000010 ed a5 d6 a9 57 a9 a2 ae 57 30 b0 b2 e4 af 57 24
       -0.02315 -0.0456 -0.04172 -0.10364 0.1356 -0.209 -0.1233 0.01695
000020 90 30 be 2c 23 ad 28 b4 03 b0 82 2b c0 b1 0e b0
       0.1426 0.0741 -0.08026 -0.2598 -0.1254 0.05865 -0.1797 -0.1267
000030 71 2b 5f b0 9e b1 f9 26 d9 28 7a a6 2d a8 43 a5
       0.05814 -0.1366 -0.1755 0.02724 0.03787 -0.0253 -0.03262 -0.02055
000040 1a b1 95 2b 6c ae bc 28 31 a5 56 a7 0f ad c8 30
       -0.1594 0.05923 -0.10034 0.037 -0.02028 -0.02866 -0.07904 0.1494
000050 71 9e 82 2b 37 a8 d2 ac b2 28 81 28 c6 22 b2 29
       -0.00629 0.05865 -0.03293 -0.0753 0.03668 0.0352 0.01323 0.0445
000060 87 aa 55 ac 6e 2b b0 aa 02 b4 49 35 4b ac 40 1b
       -0.051 -0.0677 0.05804 -0.05225 -0.2505 0.3303 -0.0671 0.00354
000070 ac ac 77 30 45 9f a6 25 de 24 81 aa 79 31 14 30
       -0.073 0.1395 -0.0071 0.02206 0.01901 -0.0508 0.171 0.1274
000080 b6 25 4c 28 55 ab 17 ad 45 a8 b3 19 50 ac 13 ab
       0.02231 0.03357 -0.05728 -0.0795 -0.03336 0.002783 -0.0674 -0.05527
000090 16 2e eb 2a 0b ad e3 b0 81 ad c6 ab 0b a8 cf 28
       0.0951 0.05405 -0.0788 -0.1527 -0.086 -0.06073 -0.0316 0.03757
0000a0 91 ab 57 aa b2 ad d1 24 8a ad f9 ae ee 20 e8 a5
       -0.0591 -0.04953 -0.089 0.01881 -0.08655 -0.10895 0.00963 -0.02307
0000b0 8b ad 97 a7 c7 ac 1e 29 a9 b6 cd ac 53 a6 76 ab
       -0.0866 -0.02965 -0.07465 0.03998 -0.4163 -0.075 -0.0247 -0.0583
0000c0 1a 22 dc 29 5f aa 19 21 39 1d c0 ad e7 1c 64 1e
       0.01192 0.04578 -0.04977 0.00996 0.0051 -0.08984 0.004787 0.00624
0000d0 48 ae fc a4 83 2d 8b a5 26 b0 f3 ab 42 29 f5 b0
       -0.09814 -0.01947 0.0861 -0.02165 -0.1296 -0.0621 0.04108 -0.1549
0000e0 d8 32 93 2e 73 ae 30 a9 a3 af 85 ae 7e a1 4e ab
       0.2139 0.1027 -0.10077 -0.04053 -0.1193 -0.10187 -0.01073 -0.05707
0000f0 be 24 e0 32 7e 19 54 ad ef ac 05 a3 9c 18 b1 ab
       0.01852 0.2148 0.002682 -0.08325 -0.0771 -0.01371 0.00225 -0.0601
000100 76 ad 51 28 fc 23 1b b1 0e 2b 59 ad 8d 27 1f 2c
       -0.0853 0.03372 0.015594 -0.1595 0.0551 -0.08356 0.0295 0.0644
000110 4c 30 87 29 49 2f 67 33 97 a4 70 a8 ba a1 c7 aa
       0.1343 0.04318 0.11383 0.2313 -0.01793 -0.03467 -0.011185 -0.05295
000120 52 b0 b5 36 40 24 7a 29 91 ac 1a ad 42 ad 38 af
       -0.135 0.4192 0.0166 0.0428 -0.07135 -0.0797 -0.08215 -0.1128
000130 7d 24 7e aa 45 a9 fe a7 c2 b0 82 b0 ca ac c3 b1
       0.01753 -0.05072 -0.04117 -0.03122 -0.1487 -0.1409 -0.0748 -0.18
000140 63 2d b8 af da a5 80 a9 aa ad 19 ad 80 27 7d 2c
       0.08417 -0.1206 -0.02286 -0.04297 -0.0885 -0.07965 0.0293 0.0701
000150 0a 30 13 29 39 ad ff ae 62 b0 50 b0 95 a9 c8 b4
       0.1262 0.03964 -0.0816 -0.1093 -0.137 -0.1348 -0.0436 -0.2988
000160 4a a7 6b af 05 b0 bd a6 57 9d 51 26 e1 b2 54 b1
       -0.02847 -0.1159 -0.1256 -0.02632 -0.005215 0.02467 -0.215 -0.1665
000170 3d b0 e6 a9 77 b0 0b b4 4d ac 95 a5 10 2e c4 2f
       -0.1324 -0.04608 -0.1395 -0.2527 -0.0672 -0.0218 0.0947 0.12134
000180 f6 b4 97 2e f7 29 55 a9 1b 20 bc ae 7d 1c fc ac
       -0.31 0.10297 0.0466 -0.04166 0.00802 -0.1052 0.004383 -0.0779
000190 26 a9 b7 b2 c9 b0 dc b0 5e a5 8a af e9 b0 16 2a
       -0.04022 -0.2098 -0.1495 -0.1519 -0.02097 -0.1178 -0.1534 0.04755
0001a0 df 20 51 27 71 08 c9 1c 6a b0 2d af 6a ab 1c 31
       0.009514 0.02858 0.0001355 0.004673 -0.138 -0.1121 -0.05792 0.1597
0001b0 02 1c 9d 21 58 b3 4a af 77 af 70 b1 14 af 29 30
       0.003914 0.01096 -0.2295 -0.1139 -0.11664 -0.1699 -0.1106 0.13
0001c0 41 ad e6 ac 46 12 fd 2c f4 a5 bd ac be ad 69 95
       -0.0821 -0.07654 0.000766 0.07794 -0.02325 -0.07404 -0.0897 -0.001321
0001d0 d5 ad b1 a4 06 ad 3f ae 20 ae 3e b0 42 ad d4 2d
       -0.0911 -0.01833 -0.0785 -0.0976 -0.0957 -0.1326 -0.08215 0.09106
0001e0 4d 27 16 ac a7 ac e2 b0 48 a0 2c b2 82 2e 92 ab
       0.02852 -0.06384 -0.0727 -0.1526 -0.00836 -0.1929 0.1017 -0.05914
0001f0 5d 2c a5 a8 06 b1 03 b4 d6 27 4c 98 bd a6 fc 28
       0.0682 -0.0363 -0.157 -0.2507 0.03061 -0.002098 -0.02632 0.03894

bert.encoder.layer.0.output.LayerNorm.weight f2 [768]
000000 45 3a 75 3a 23 3a e6 39 1b 3a 12 3a 21 3a 44 3a
       0.7837 0.807 0.767 0.7373 0.763 0.759 0.766 0.783
000010 59 3a 0b 3a e9 39 d8 39 d9 39 9d 39 3a 3a f9 39
       0.7935 0.7554 0.739 0.7305 0.731 0.7017 0.7783 0.7466
000020 12 3a d9 39 69 3a cb 39 1b 3a f8 39 14 3a 2a 3a
       0.759 0.731 0.8013 0.724 0.763 0.746 0.76 0.7705
000030 dd 39 2f 3a e1 39 61 3a 2d 3a 12 3a 44 3a f7 39
       0.733 0.773 0.735 0.7974 0.772 0.759 0.783 0.7456
000040 19 3a 4e 3a 47 3a 40 3a 59 3a 24 3a 18 3a e4 39
       0.762 0.788 0.7847 0.7812 0.7935 0.7676 0.7617 0.7363
000050 36 3a 28 3a 5d 3a 40 3a 4d 3a 0b 3a a3 39 67 3a
       0.7764 0.7695 0.7954 0.7812 0.7876 0.7554 0.7046 0.8003
000060 39 3a 54 3a 2e 3a 26 3a 14 3a 0f 39 f5 39 29 3a
       0.778 0.791 0.7725 0.7686 0.76 0.6323 0.7446 0.77
000070 4b 3a ab 39 5e 3a 01 3a 35 3a eb 39 4d 39 cc 39
       0.7866 0.7085 0.796 0.7505 0.776 0.7397 0.6626 0.7246
000080 15 3a 28 3a 38 3a 59 3a 22 3a 33 3a 48 3a 36 3a
       0.7603 0.7695 0.7773 0.7935 0.7666 0.775 0.785 0.7764
000090 06 3a 07 3a 60 3a c2 39 29 3a aa 39 06 3a 1a 3a
       0.753 0.7534 0.797 0.7197 0.77 0.708 0.753 0.7627
0000a0 45 3a 64 3a 40 3a 20 3a b3 39 11 3a f6 39 1c 3a
       0.7837 0.799 0.7812 0.7656 0.7124 0.7583 0.745 0.7637
0000b0 45 3a 5a 3a 2d 3a 29 3a 0c 38 2e 3a 2f 3a f4 39
       0.7837 0.794 0.772 0.77 0.506 0.7725 0.773 0.744
0000c0 15 39 d6 39 39 3a 5d 3a 66 3a 59 3a 2a 3a eb 39
       0.6353 0.7295 0.778 0.7954 0.8 0.7935 0.7705 0.7397
0000d0 f6 39 e0 38 ef 39 55 3a fa 39 ed 39 24 3a 0b 3a
       0.745 0.6094 0.7417 0.7915 0.747 0.7407 0.7676 0.7554
0000e0 a6 39 37 3a 5d 3a 1b 3a 1f 3a 5e 3a 30 3a 16 3a
       0.706 0.777 0.7954 0.763 0.765 0.796 0.7734 0.7607
0000f0 18 3a 11 38 33 3a 06 3a a4 39 25 3a 38 3a 42 3a
       0.7617 0.5083 0.775 0.753 0.705 0.768 0.7773 0.782
000100 28 3a fc 39 49 3a 1a 3a 5f 39 f0 39 3c 3a 57 3a
       0.7695 0.748 0.7856 0.7627 0.6714 0.742 0.7793 0.7925
000110 15 3a 2a 3a 3f 3a 19 39 49 3a 3b 3a 29 3a 29 3a
       0.7603 0.7705 0.781 0.637 0.7856 0.779 0.77 0.77
000120 17 3a 63 2e 4d 3a 0b 3a 11 3a 16 3a 04 3a 14 3a
       0.761 0.0998 0.7876 0.7554 0.7583 0.7607 0.752 0.76
000130 ba 39 61 3a 5c 3a 04 3a 21 3a c2 39 36 3a 9b 37
       0.716 0.7974 0.795 0.752 0.766 0.7197 0.7764 0.4753
000140 45 3a 40 3a db 39 77 3a 1a 3a 39 3a 11 3a 29 3a
       0.7837 0.7812 0.732 0.808 0.7627 0.778 0.7583 0.77
000150 e4 38 38 3a 4e 3a 1c 3a cb 39 31 3a 48 3a 43 35
       0.6113 0.7773 0.788 0.7637 0.724 0.774 0.785 0.3289
000160 07 3a 1f 3a 17 3a 1d 3a 43 3a 66 3a f7 39 1c 3a
       0.7534 0.765 0.761 0.764 0.7827 0.8 0.7456 0.7637
000170 47 3a 44 3a 26 3a dd 39 4a 3a 34 3a 2e 3a e9 39
       0.7847 0.783 0.7686 0.733 0.786 0.7754 0.7725 0.739
000180 c9 39 e9 39 2f 3a 2d 3a 5e 3a fe 39 f4 39 cb 39
       0.723 0.739 0.773 0.772 0.796 0.749 0.744 0.724
000190 25 3a e7 39 ac 38 18 3a 38 3a f0 39 13 3a 07 3a
       0.768 0.738 0.584 0.7617 0.7773 0.742 0.7593 0.7534
0001a0 4d 3a fa 39 2b 3a 4b 3a f0 39 3a 3a 27 3a 09 39
       0.7876 0.747 0.771 0.7866 0.742 0.7783 0.769 0.6294
0001b0 46 38 40 3a e8 38 df 39 32 3a 09 3a 3b 3a 10 3a
       0.534 0.7812 0.6133 0.734 0.7744 0.7544 0.779 0.758
0001c0 33 3a e5 38 10 3a e8 39 4e 3a 4d 3a 01 3a 20 3a
       0.775 0.612 0.758 0.7383 0.788 0.7876 0.7505 0.7656
0001d0 11 3a 48 3a 5d 3a 1a 3a 1e 3a cf 39 59 3a fa 39
       0.7583 0.785 0.7954 0.7627 0.7646 0.726 0.7935 0.747
0001e0 01 3a 5b 3a 52 3a e5 39 2b 3a 04 39 c5 39 0b 3a
       0.7505 0.7944 0.79 0.737 0.771 0.627 0.721 0.7554
0001f0 1c 3a cf 39 03 3a ad 39 22 3a 46 3a 62 3a 05 3a
       0.7637 0.726 0.7515 0.7095 0.7666 0.784 0.798 0.7524
